…
    train_gnn(tr_data, val_data, te_data, tr_inds, val_inds, te_inds, args, data_config)
  File "C:\Users\user\Multi-GNN\training.py", line 228, in train_gnn
    logging.info(summary(model, sample_x, sample_edge_index, sample_edge_attr))
Message: '+---------------------------------+----------------------------------------+----------------+----------+\n| Layer                           | Input Shape                            | Output Shape   | #Param   |\n|---------------------------------+----------------------------------------+----------------+----------|\n| PNA                             | [50614, 1], [2, 341148], [341148, 4]   | [341148, 2]    | 28,917   |\n| ├─(node_emb)Linear              | [50614, 1]                             | [50614, 20]    | 40       |\n| ├─(edge_emb)Linear              | [341148, 4]                            | [341148, 20]   | 100      |\n| ├─(convs)ModuleList             | --                                     | --             | 24,320   |\n| │    └─(0)PNAConv               | [50614, 20], [2, 341148], [341148, 20] | [50614, 20]    | 12,160   |\n| │    └─(1)PNAConv               | [50614, 20], [2, 341148], [341148, 20] | [50614, 20]    | 12,160   |\n| ├─(emlps)ModuleList             | --                                     | --             | --       |\n| ├─(batch_norms)ModuleList       | --                                     | --             | 80       |\n| │    └─(0)BatchNorm             | [50614, 20]                            | [50614, 20]    | 40       |\n| │    │    └─(module)BatchNorm1d | [50614, 20]                            | [50614, 20]    | 40       |\n| │    └─(1)BatchNorm             | [50614, 20]                            | [50614, 20]    | 40       |\n| │    │    └─(module)BatchNorm1d | [50614, 20]                            | [50614, 20]    | 40       |\n| ├─(mlp)Sequential               | [341148, 60]                           | [341148, 2]    | 4,377    |\n| │    └─(0)Linear                | [341148, 60]                           | [341148, 50]   | 3,050    |\n| │    └─(1)ReLU                  | [341148, 50]                           | [341148, 50]   | --       |\n| │    └─(2)Dropout               | [341148, 50]                           | [341148, 50]   | --       |\n| │    └─(3)Linear                | [341148, 50]                           | [341148, 25]   | 1,275    |\n| │    └─(4)ReLU                  | [341148, 25]                           | [341148, 25]   | --       |\n| │    └─(5)Dropout               | [341148, 25]                           | [341148, 25]   | --       |\n| │    └─(6)Linear                | [341148, 25]                           | [341148, 2]    | 52       |\n+---------------------------------+----------------------------------------+----------------+----------+'
Arguments: ()
2025-04-03 06:52:58,109 [INFO ] +---------------------------------+----------------------------------------+----------------+----------+
| Layer                           | Input Shape                            | Output Shape   | #Param   |
|---------------------------------+----------------------------------------+----------------+----------|
| PNA                             | [50614, 1], [2, 341148], [341148, 4]   | [341148, 2]    | 28,917   |
| ├─(node_emb)Linear              | [50614, 1]                             | [50614, 20]    | 40       |
| ├─(edge_emb)Linear              | [341148, 4]                            | [341148, 20]   | 100      |
| ├─(convs)ModuleList             | --                                     | --             | 24,320   |
| │    └─(0)PNAConv               | [50614, 20], [2, 341148], [341148, 20] | [50614, 20]    | 12,160   |
| │    └─(1)PNAConv               | [50614, 20], [2, 341148], [341148, 20] | [50614, 20]    | 12,160   |
| ├─(emlps)ModuleList             | --                                     | --             | --       |
| ├─(batch_norms)ModuleList       | --                                     | --             | 80       |
| │    └─(0)BatchNorm             | [50614, 20]                            | [50614, 20]    | 40       |
| │    │    └─(module)BatchNorm1d | [50614, 20]                            | [50614, 20]    | 40       |
| │    └─(1)BatchNorm             | [50614, 20]                            | [50614, 20]    | 40       |
| │    │    └─(module)BatchNorm1d | [50614, 20]                            | [50614, 20]    | 40       |
| ├─(mlp)Sequential               | [341148, 60]                           | [341148, 2]    | 4,377    |
| │    └─(0)Linear                | [341148, 60]                           | [341148, 50]   | 3,050    |
| │    └─(1)ReLU                  | [341148, 50]                           | [341148, 50]   | --       |
| │    └─(2)Dropout               | [341148, 50]                           | [341148, 50]   | --       |
| │    └─(3)Linear                | [341148, 50]                           | [341148, 25]   | 1,275    |
| │    └─(4)ReLU                  | [341148, 25]                           | [341148, 25]   | --       |
| │    └─(5)Dropout               | [341148, 25]                           | [341148, 25]   | --       |
| │    └─(6)Linear                | [341148, 25]                           | [341148, 2]    | 52       |
+---------------------------------+----------------------------------------+----------------+----------+
2025-04-03 06:54:16,780 [INFO ] Train F1: 0.0014
2025-04-03 06:55:03,213 [INFO ] Validation F1: 0.0000
2025-04-03 06:55:03,213 [INFO ] Test F1: 0.0000
2025-04-03 06:56:20,590 [INFO ] Train F1: 0.0008
2025-04-03 06:57:07,607 [INFO ] Validation F1: 0.0057
2025-04-03 06:57:07,607 [INFO ] Test F1: 0.0273
…
