…
    train_gnn(tr_data, val_data, te_data, tr_inds, val_inds, te_inds, args, data_config)
  File "C:\Users\user\Multi-GNN0\training.py", line 391, in train_gnn
    logging.info("Model Summary:\n" + str(summary(model, sample_x, sample_edge_index, sample_edge_attr)))
Message: 'Model Summary:\n+---------------------------------+----------------------------------------+----------------+----------+\n| Layer                           | Input Shape                            | Output Shape   | #Param   |\n|---------------------------------+----------------------------------------+----------------+----------|\n| GINe                            | [50614, 1], [2, 341148], [341148, 4]   | [341148, 2]    | 38,535   |\n| ├─(node_emb)Linear              | [50614, 1]                             | [50614, 66]    | 132      |\n| ├─(edge_emb)Linear              | [341148, 4]                            | [341148, 66]   | 330      |\n| ├─(convs)ModuleList             | --                                     | --             | 26,532   |\n| │    └─(0)GINEConv              | [50614, 66], [2, 341148], [341148, 66] | [50614, 66]    | 13,266   |\n| │    └─(1)GINEConv              | [50614, 66], [2, 341148], [341148, 66] | [50614, 66]    | 13,266   |\n| ├─(emlps)ModuleList             | --                                     | --             | --       |\n| ├─(batch_norms)ModuleList       | --                                     | --             | 264      |\n| │    └─(0)BatchNorm             | [50614, 66]                            | [50614, 66]    | 132      |\n| │    │    └─(module)BatchNorm1d | [50614, 66]                            | [50614, 66]    | 132      |\n| │    └─(1)BatchNorm             | [50614, 66]                            | [50614, 66]    | 132      |\n| │    │    └─(module)BatchNorm1d | [50614, 66]                            | [50614, 66]    | 132      |\n| ├─(mlp)Sequential               | [341148, 198]                          | [341148, 2]    | 11,277   |\n| │    └─(0)Linear                | [341148, 198]                          | [341148, 50]   | 9,950    |\n| │    └─(1)ReLU                  | [341148, 50]                           | [341148, 50]   | --       |\n| │    └─(2)Dropout               | [341148, 50]                           | [341148, 50]   | --       |\n| │    └─(3)Linear                | [341148, 50]                           | [341148, 25]   | 1,275    |\n| │    └─(4)ReLU                  | [341148, 25]                           | [341148, 25]   | --       |\n| │    └─(5)Dropout               | [341148, 25]                           | [341148, 25]   | --       |\n| │    └─(6)Linear                | [341148, 25]                           | [341148, 2]    | 52       |\n+---------------------------------+----------------------------------------+----------------+----------+'
Arguments: ()
2025-04-03 18:24:49,715 [INFO ] Model Summary:
+---------------------------------+----------------------------------------+----------------+----------+
| Layer                           | Input Shape                            | Output Shape   | #Param   |
|---------------------------------+----------------------------------------+----------------+----------|
| GINe                            | [50614, 1], [2, 341148], [341148, 4]   | [341148, 2]    | 38,535   |
| ├─(node_emb)Linear              | [50614, 1]                             | [50614, 66]    | 132      |
| ├─(edge_emb)Linear              | [341148, 4]                            | [341148, 66]   | 330      |
| ├─(convs)ModuleList             | --                                     | --             | 26,532   |
| │    └─(0)GINEConv              | [50614, 66], [2, 341148], [341148, 66] | [50614, 66]    | 13,266   |
| │    └─(1)GINEConv              | [50614, 66], [2, 341148], [341148, 66] | [50614, 66]    | 13,266   |
| ├─(emlps)ModuleList             | --                                     | --             | --       |
| ├─(batch_norms)ModuleList       | --                                     | --             | 264      |
| │    └─(0)BatchNorm             | [50614, 66]                            | [50614, 66]    | 132      |
| │    │    └─(module)BatchNorm1d | [50614, 66]                            | [50614, 66]    | 132      |
| │    └─(1)BatchNorm             | [50614, 66]                            | [50614, 66]    | 132      |
| │    │    └─(module)BatchNorm1d | [50614, 66]                            | [50614, 66]    | 132      |
| ├─(mlp)Sequential               | [341148, 198]                          | [341148, 2]    | 11,277   |
| │    └─(0)Linear                | [341148, 198]                          | [341148, 50]   | 9,950    |
| │    └─(1)ReLU                  | [341148, 50]                           | [341148, 50]   | --       |
| │    └─(2)Dropout               | [341148, 50]                           | [341148, 50]   | --       |
| │    └─(3)Linear                | [341148, 50]                           | [341148, 25]   | 1,275    |
| │    └─(4)ReLU                  | [341148, 25]                           | [341148, 25]   | --       |
| │    └─(5)Dropout               | [341148, 25]                           | [341148, 25]   | --       |
| │    └─(6)Linear                | [341148, 25]                           | [341148, 2]    | 52       |
+---------------------------------+----------------------------------------+----------------+----------+
2025-04-03 18:24:49,720 [INFO ] Instantiated Focal Loss (alpha=[0.75, 0.25], gamma=2.0)
2025-04-03 18:24:49,720 [INFO ] Starting training with Homogeneous Data...
2025-04-03 18:25:39,171 [INFO ] Train F1: 0.0020
2025-04-03 18:26:22,160 [INFO ] Validation F1: 0.0000
2025-04-03 18:26:22,160 [INFO ] Test F1: 0.0000
…
